…
  name: CancerVGGNet13
  output_dim: 2
  n_blocks: [2, 2, 2, 2, 2]
  n_channels: [64, 128, 256, 512, 512]
optimizer:
  name: Adam
  parameters:
    lr: 1e-05
    weight_decay: 0.0005
dataset:
  name: cancer
  data_dir: ./data
  batch_size: 64
  split:
    train: 0.9
    valid: 0.1
    test: 1.0
train:
  epochs: 50
  device: cuda:0
  save_path: ./checkpoints/
  log_path: ./logs/
  seed: 42
  save_every: 2
test:
  device: cuda:0
  checkpoint: ./checkpoints/
  log_path: ./logs/
  seed: 42
2024-06-21 20:45:41,883 | INFO | 
CancerVGGNet(
  (backbone): VGGBase(
    (blocks): Sequential(
      (0): VGGBlock(
        (conv): Conv2d(3, 64, kernel_size=(3, 3), stride=(1, 1), padding=(1, 1))
        (act): ReLU()
      )
      (1): VGGBlock(
        (conv): Conv2d(64, 64, kernel_size=(3, 3), stride=(1, 1), padding=(1, 1))
        (act): ReLU()
      )
      (2): MaxPool2d(kernel_size=3, stride=2, padding=1, dilation=1, ceil_mode=False)
      (3): VGGBlock(
        (conv): Conv2d(64, 128, kernel_size=(3, 3), stride=(1, 1), padding=(1, 1))
        (act): ReLU()
      )
      (4): VGGBlock(
        (conv): Conv2d(128, 128, kernel_size=(3, 3), stride=(1, 1), padding=(1, 1))
        (act): ReLU()
      )
      (5): MaxPool2d(kernel_size=3, stride=2, padding=1, dilation=1, ceil_mode=False)
      (6): VGGBlock(
        (conv): Conv2d(128, 256, kernel_size=(3, 3), stride=(1, 1), padding=(1, 1))
        (act): ReLU()
      )
      (7): VGGBlock(
        (conv): Conv2d(256, 256, kernel_size=(3, 3), stride=(1, 1), padding=(1, 1))
        (act): ReLU()
      )
      (8): MaxPool2d(kernel_size=3, stride=2, padding=1, dilation=1, ceil_mode=False)
      (9): VGGBlock(
        (conv): Conv2d(256, 512, kernel_size=(3, 3), stride=(1, 1), padding=(1, 1))
        (act): ReLU()
      )
      (10): VGGBlock(
        (conv): Conv2d(512, 512, kernel_size=(3, 3), stride=(1, 1), padding=(1, 1))
        (act): ReLU()
      )
      (11): MaxPool2d(kernel_size=3, stride=2, padding=1, dilation=1, ceil_mode=False)
      (12): VGGBlock(
        (conv): Conv2d(512, 512, kernel_size=(3, 3), stride=(1, 1), padding=(1, 1))
        (act): ReLU()
      )
      (13): VGGBlock(
        (conv): Conv2d(512, 512, kernel_size=(3, 3), stride=(1, 1), padding=(1, 1))
        (act): ReLU()
      )
      (14): MaxPool2d(kernel_size=3, stride=2, padding=1, dilation=1, ceil_mode=False)
    )
  )
  (flatten): Flatten(start_dim=1, end_dim=-1)
  (fc1): LazyLinear(in_features=0, out_features=4096, bias=True)
  (act1): ReLU()
  (dropout1): Dropout(p=0.5, inplace=False)
  (fc2): LazyLinear(in_features=0, out_features=4096, bias=True)
…
