2024-06-20 01:13:01,409 | INFO | 
model:
  name: CancerResNet11
  output_dim: 2
  n_blocks: [1, 1, 1, 1]
  n_channels: [64, 128, 256, 512]
optimizer:
  name: Adam
  parameters:
    lr: 0.001
    weight_decay: 0.0005
dataset:
  name: cancer
  data_dir: ./data
  batch_size: 512
  split:
    train: 0.9
    valid: 0.1
    test: 1.0
train:
  epochs: 50
  device: cuda:0
  save_path: ./checkpoints/
  log_path: ./logs/
  seed: 42
  save_every: 2
test:
  device: cuda:0
  checkpoint: ./checkpoints/
  log_path: ./logs/
  seed: 42
2024-06-20 01:13:01,410 | INFO | 
CancerResNet(
  (conv): Conv2d(3, 64, kernel_size=(3, 3), stride=(2, 2), padding=(1, 1))
  (bn): BatchNorm2d(64, eps=1e-05, momentum=0.1, affine=True, track_running_stats=True)
  (act): ReLU()
  (max_pool): MaxPool2d(kernel_size=3, stride=2, padding=1, dilation=1, ceil_mode=False)
  (backbone): ResNetBase(
    (blocks): Sequential(
      (0): ResidualBlock(
        (conv1): Conv2d(64, 64, kernel_size=(3, 3), stride=(1, 1), padding=(1, 1))
        (bn1): BatchNorm2d(64, eps=1e-05, momentum=0.1, affine=True, track_running_stats=True)
        (act1): ReLU()
        (conv2): Conv2d(64, 64, kernel_size=(3, 3), stride=(1, 1), padding=(1, 1))
        (bn2): BatchNorm2d(64, eps=1e-05, momentum=0.1, affine=True, track_running_stats=True)
        (shortcut): Identity()
        (act2): ReLU()
      )
      (1): ResidualBlock(
        (conv1): Conv2d(64, 128, kernel_size=(3, 3), stride=(2, 2), padding=(1, 1))
        (bn1): BatchNorm2d(128, eps=1e-05, momentum=0.1, affine=True, track_running_stats=True)
        (act1): ReLU()
        (conv2): Conv2d(128, 128, kernel_size=(3, 3), stride=(1, 1), padding=(1, 1))
        (bn2): BatchNorm2d(128, eps=1e-05, momentum=0.1, affine=True, track_running_stats=True)
        (shortcut): ShortcutProjection(
          (conv): Conv2d(64, 128, kernel_size=(1, 1), stride=(2, 2))
          (bn): BatchNorm2d(128, eps=1e-05, momentum=0.1, affine=True, track_running_stats=True)
        )
        (act2): ReLU()
      )
      (2): ResidualBlock(
        (conv1): Conv2d(128, 256, kernel_size=(3, 3), stride=(2, 2), padding=(1, 1))
        (bn1): BatchNorm2d(256, eps=1e-05, momentum=0.1, affine=True, track_running_stats=True)
        (act1): ReLU()
        (conv2): Conv2d(256, 256, kernel_size=(3, 3), stride=(1, 1), padding=(1, 1))
        (bn2): BatchNorm2d(256, eps=1e-05, momentum=0.1, affine=True, track_running_stats=True)
        (shortcut): ShortcutProjection(
          (conv): Conv2d(128, 256, kernel_size=(1, 1), stride=(2, 2))
          (bn): BatchNorm2d(256, eps=1e-05, momentum=0.1, affine=True, track_running_stats=True)
        )
        (act2): ReLU()
      )
      (3): ResidualBlock(
        (conv1): Conv2d(256, 512, kernel_size=(3, 3), stride=(2, 2), padding=(1, 1))
        (bn1): BatchNorm2d(512, eps=1e-05, momentum=0.1, affine=True, track_running_stats=True)
        (act1): ReLU()
        (conv2): Conv2d(512, 512, kernel_size=(3, 3), stride=(1, 1), padding=(1, 1))
        (bn2): BatchNorm2d(512, eps=1e-05, momentum=0.1, affine=True, track_running_stats=True)
        (shortcut): ShortcutProjection(
          (conv): Conv2d(256, 512, kernel_size=(1, 1), stride=(2, 2))
          (bn): BatchNorm2d(512, eps=1e-05, momentum=0.1, affine=True, track_running_stats=True)
        )
        (act2): ReLU()
      )
    )
  )
  (avg_pool): AdaptiveAvgPool2d(output_size=(1, 1))
  (flatten): Flatten(start_dim=1, end_dim=-1)
  (fc): Linear(in_features=512, out_features=2, bias=True)
)
2024-06-20 01:13:01,410 | INFO | 
Adam (
Parameter Group 0
    amsgrad: False
    betas: (0.9, 0.999)
    capturable: False
    differentiable: False
    eps: 1e-08
    foreach: None
    fused: None
    lr: 0.001
    maximize: False
    weight_decay: 0.0005
)
2024-06-20 01:13:01,410 | INFO | 
CrossEntropyLoss()
2024-06-20 08:50:06,133 | INFO | 
model:
  name: CancerResNet11
…
